results/nn_baseline/mlp_model.pth (torch, 13212 bytes, 5 tensors)

net.0.weight f4 [64, 7]
0.5747839 0.18494971 -0.050511315 0.23037925 -0.28287947 -0.20908451 -0.0775865 0.5804786
-0.14034048 -0.14622442 -0.06924234 0.1833092 0.19044876 -0.045707688 0.3973401 -0.2781452
0.3122376 0.093839556 -0.24215905 0.052421905 -0.24140303 -0.122485206 0.05080399 0.023721743
-0.4068796 -0.09287838 -0.43642783 -0.1148986 0.2553114 -0.6049876 0.16954415 -0.16898951
0.37315112 0.20947745 -0.0018237391 0.47269484 0.04943798 0.097992025 0.16539393 0.20211454
-0.22426203 0.12470869 0.3381171 0.08268358 0.09069236 -0.18624924 0.5313088 0.06796711
0.3866705 -0.49384668 -0.38694668 0.16981037 -0.43721798 -0.120786674 0.08546271 0.3592518
0.41937807 -0.014762669 0.31834263 -0.037443332 0.023297973 -0.18253587 0.21740277 -0.27566078
0.03850817 0.002358203 0.08255903 0.011821854 0.008043577 0.067737915 0.43854293 -0.081016034
0.18516947 0.130765 -0.6297222 -0.015638085 -0.2140896 0.32084495 -0.13280606 0.14623688
0.10458164 -0.19482584 0.26661363 -0.06403139 0.53896046 -0.3242882 0.2669413 -0.09861781
0.03359748 0.047543578 -0.10806838 -0.3505994 0.19172846 0.09322812 -0.019359613 0.31436196
0.32200584 -0.33994117 0.29939458 -0.5716637 -0.5525005 0.36505052 0.11598709 0.09934276
0.050788857 -0.4473481 0.10857542 -0.34179443 0.064909816 -0.022001924 0.5515492 0.17667875
0.25649548 -0.43392274 0.13343807 -0.0853127 0.0787632 -0.15610956 -0.014130629 -0.40777344
0.29459313 -0.14901686 -0.13382252 -0.36061543 -0.07780861 -0.16313404 -0.3198087 -0.4685213
0.15984385 -0.05204263 0.3465682 0.50709265 -0.25052232 0.32597625 -0.20563228 -0.024115365
-0.24073023 -0.19226086 0.41453716 -0.32230976 0.2154756 -0.2639923 0.27126387 0.0071071144
-0.18305032 0.1896329 -0.1300186 0.41548923 0.093435906 -0.17380157 0.011553845 0.15219562
0.11956278 -0.22622338 0.30724895 -0.17872247 0.046209194 0.063788325 0.1618454 -0.18282545
0.2830335 0.3434775 -0.048362862 -0.23614232 0.16538121 0.0022467766 0.043554038 0.067036614
0.4157647 -0.25324908 0.27708343 -0.11191289 -0.033884373 0.026888259 -0.17055905 -0.29896903
-0.11894724 0.018136237 0.16683817 -0.41201675 0.43598425 0.28118128 0.53384686 -0.39490482
0.32406738 0.22120628 0.022010839 0.038141035 -0.091611266 0.38828185 -0.3190581 -0.18249589
0.190687 0.12994033 -0.2119632 -0.035506785 -0.22517331 0.123250246 -0.06079853 -0.09804972
-0.32598343 -0.18423113 0.24655531 0.48663524 -0.28632277 0.101469114 -0.3043947 -0.40442753
0.04725641 0.33006445 0.47375706 -0.017772378 -0.10644563 -0.041718997 0.123286694 0.15440345
0.12874514 -0.47372967 0.036199823 -0.1185841 -0.21702248 0.12367886 -0.08951267 -0.1352074
-0.460235 0.20375016 -0.02846254 0.20551175 -0.15324433 -0.16955902 0.18903074 0.4705269
-0.0073974505 0.13874254 -0.10141373 0.091467924 0.03973776 -0.09261896 -0.59443665 -0.114069246
0.13149677 -0.07693598 -0.07291823 -0.044556316 -0.24310288 -0.52829355 -0.07438015 0.0049642567
-0.07396505 -0.0069895606 0.063228436 -0.24231915 0.010075156 -0.44818482 -0.053676616 -0.28007424
00000000: 0a25 133f 7563 3d3e f4e4 4ebd 8ae8 6b3e
00000010: 94d5 90be 401a 56be ace5 9ebd 3f9a 143f
00000020: 6ab5 0fbe dbbb 15be eece 8dbd 68b5 3b3e
00000030: 0005 433e fc37 3bbd 2970 cb3e 0c69 8ebe
00000040: 9bdd 9f3e f42e c03d 8bf8 77be 5ab8 563d
00000050: 5b32 77be 86d9 fabd d817 503d 1a54 c23c
00000060: 8652 d0be 0537 bebd 7873 dfbe f54f ebbd
00000070: 2db8 823e 78e0 1abf fb9c 2d3e 960b 2dbe
00000080: aa0d bf3e 4281 563e 880a efba 0f05 f23e
00000090: 7b7f 4a3d 0bb0 c83d 075d 293e 1df7 4e3e
000000a0: f2a4 65be 4567 ff3d af1d ad3e 0256 a93d
000000b0: ebbc b93d 1fb8 3ebe db03 083f 5732 8b3d
000000c0: adf9 c53e 79d9 fcbe e01d c6be c5e2 2d3e
000000d0: 09db dfbe 015f f7bd 1307 af3d daef b73e
000000e0: b9b8 d63e 1fdf 71bc cefd a23e 2e5e 19bd
000000f0: 64db be3c afea 3abe d59e 5e3e 6923 8dbe
00000100: beba 1d3d 158c 1a3b b514 a93d 73b0 413c
00000110: 35c9 033c 2dba 8a3d b388 e03e bceb a5bd
00000120: 119d 3d3e 43e7 053e 7935 21bf 711b 80bc
00000130: 4e3a 5bbe ca45 a43e 50fe 07be 1fbf 153e
00000140: e62e d63d 6d80 47be 9581 883e e422 83bd
00000150: 50f9 093f 1a09 a6be 88ac 883e 22f8 c9bd
00000160: 839d 093d 0ebd 423d f452 ddbd c481 b3be
00000170: 7754 443e 62ee be3d 0d98 9ebc 0df4 a03e
00000180: f3dd a43e c50c aebe 3f4a 993e 8d58 12bf
00000190: ac70 0dbf e7e7 ba3e a48a ed3d 3874 cb3d
000001a0: fa07 503d cf0a e5be ca5c de3d aeff aebe
000001b0: 70ef 843d 613d b4bc 5432 0d3f 46eb 343e
000001c0: 6053 833e 1f2b debe fda3 083e 6db8 aebd
000001d0: 9a4e a13d 2fdb 1fbe 2784 67bc aec7 d0be
000001e0: e9d4 963e e097 18be c508 09be 96a2 b8be
000001f0: 1f5a 9fbd 9c0c 27be f7bd a3be 06e2 efbe
00000200: 1bae 233e a72a 55bd 6371 b13e d3d0 013f
00000210: 7644 80be 5ce6 a63e 4591 52be 968d c5bc
00000220: fc81 76be 08e0 44be 373e d43e c905 a5be
00000230: a3a5 5c3e 002a 87be 19e3 8a3e cce2 e83b
00000240: 8b71 3bbe 202f 423e 9923 05be 01bb d43e
00000250: 535b bf3d 0af9 31be 574c 3d3c 2bd9 1b3e
00000260: 55dd f43d 1aa7 67be bc4f 9d3e 0603 37be
00000270: da45 3d3d 74a3 823d cdba 253e 9836 3bbe
00000280: c4e9 903e 48dc af3e 2318 46bd 4bcf 71be
00000290: b159 293e a83e 133b b865 323d 7e4a 893d
000002a0: 1cdf d43e dda9 81be e1dd 8d3e 9632 e5bd
000002b0: 57ca 0abd c444 dc3c 08a7 2ebe 7812 99be
000002c0: 9c9a f3bd 7292 943c a0d7 2a3e dcf3 d2be
000002d0: 5439 df3e fef6 8f3e 30aa 083f f730 cabe
000002e0: 29ec a53e e683 623e 1350 b43c c639 1c3d
000002f0: b09e bbbd e1cc c63e 955b a3be 34e0 3abe
00000300: 7443 433e 140f 053e e20c 59be 906f 11bd
00000310: d593 66be a06a fc3d e107 79bd 4bce c8bd
00000320: 4de7 a6be 16a7 3cbe ff78 7c3e 4128 f93e
00000330: e698 92be 0acf cf3d 9fd9 9bbe 2011 cfbe
00000340: f08f 413d 35fe a83e 4990 f23e 6197 91bc
00000350: 2b00 dabd 8ae1 2abd bc7d fc3d f01b 1e3e
00000360: c4d5 033e b28c f2be 4446 143d 38dc f2bd
00000370: 243b 5ebe 584b fd3d 6b52 b7bd cf73 0abe
00000380: eca3 ebbe e2a3 503e 462a e9bc ac71 523e
00000390: 15ec 1cbe e1a0 2dbe 4691 413e e7e8 f03e
000003a0: 5066 f2bb 8612 0e3e 00b2 cfbd 8953 bb3d
000003b0: 10c4 223d 02af bdbd 002d 18bf 239d e9bd
000003c0: 17a7 063e 9c90 9dbd 2756 95bd af80 36bd
000003d0: f6ef 78be 3f3e 07bf 9f54 98bd 34ab a23b
000003e0: fd7a 97bd af08 e5bb e97d 813d 8322 78be
000003f0: 4412 253c 7b78 e5be 03dc 5bbd e465 8fbe

net.0.bias f4 [64]
-0.28861287 -0.5305848 0.078591004 -0.75469106 -1.0150335 -0.12566578 -0.2897804 -0.18059824
-0.33035108 0.23534611 -0.18606204 -0.60848904 -0.13287269 -0.12206727 -0.24967964 -0.4305776
0.22044913 -0.37090343 -0.4646835 -0.5218349 0.24374919 0.16650635 0.19218123 0.07651671
-0.07584338 -0.7842863 -0.2708172 -0.2231039 -0.37239486 -0.30942568 -0.26341012 -0.1397587
-0.16476718 -0.2058762 -0.5165455 -0.31088093 -0.9345001 -0.62022156 -0.16389424 -0.4600549
0.17993952 -0.010718899 0.18789895 -0.11869935 -0.045746766 -0.12362276 -0.13097982 -0.016913882
-0.23406786 0.07717528 -0.26588318 -0.6951283 -0.32423785 -0.26987484 -0.114110775 0.31291506
0.2677229 -0.17311847 -0.6366495 -0.7267854 -0.32435334 -0.38877493 -0.28092667 -0.37861875
00000000: 11c5 93be 68d4 07bf 52f4 a03d 6f33 41bf
00000010: 9eec 81bf 88ae 00be 195e 94be bfee 38be
00000020: c723 a9be 92fe 703e 0c87 3ebe f0c5 1bbf
00000030: c70f 08be 68fe f9bd 05ac 7fbe ab74 dcbe
00000040: 6bbd 613e 0ee7 bdbe ffea edbe f996 05bf
00000050: 6399 793e a480 2a3e 28cb 443e cbb4 9c3d
00000060: c653 9bbd fdc6 48bf 8da8 8abe 5975 64be
00000070: 8aaa bebe 0b6d 9ebe b1dd 86be e81c 0fbe
00000080: bab8 28be 36d1 52be 533c 04bf c92b 9fbe
00000090: 663b 6fbf d7c6 1ebf e4d3 27be 518c ebbe
000000a0: 1142 383e 529e 2fbc 9568 403e a518 f3bd
000000b0: f660 3bbd ee2d fdbd 931f 06be fb8e 8abc
000000c0: 7caf 6fbe 130e 9e3d d721 88be eef3 31bf
000000d0: 8102 a6be 092d 8abe e9b2 e9bd 6736 a03e
000000e0: fa12 893e f845 31be 76fb 22bf 9c0e 3abf
000000f0: a411 a6be 820d c7be 9fd5 8fbe 51da c1be

net.3.weight f4 [32, 64]
0.0044434746 0.012469791 0.12144425 -0.13823125 -0.51995 -0.010860602 0.150431 -0.23909344
-0.054223154 -0.048066508 0.16577078 0.12573998 0.23148265 -0.22167201 -0.10177931 -0.4396694
0.13620871 -0.14247109 -0.11809936 -0.08552952 0.19560824 0.16501673 0.2246826 -0.045922346
-0.26550254 -0.35322723 -0.020648932 0.105078645 -0.16405396 -0.10060314 0.09097085 -0.1510959
-0.04299858 0.26510593 -0.1035617 -0.039539006 -0.010324569 0.016923565 -0.19527131 0.18915248
-0.22480416 -0.08503381 0.39252192 -0.18925913 -0.10802083 -0.17403045 0.0111182965 -0.018091897
-0.055998676 0.0230877 0.02727781 -0.060123175 -0.16090152 0.049400467 0.013360282 0.10089636
-0.10145942 -0.21835952 -0.23409727 -0.5638711 0.23103723 -0.0553492 -0.045756124 0.10442451
-0.37997425 0.50883627 -0.1700279 0.10403303 0.32379553 0.026840147 -0.38722873 0.1314935
0.3714128 -0.068517126 -0.46262345 0.33412862 0.20182708 -0.5924735 -0.035641193 -0.28430966
-0.05725681 -0.075029194 -0.11159733 -0.12358452 0.17142361 -0.079447575 0.22070897 0.068670325
-0.016721707 -0.13269798 0.06225407 -0.39211392 -0.3761071 -0.26947027 -0.20901893 -0.18336982
-0.22107635 0.27304903 -0.010244648 -0.19325195 -0.20731564 0.315412 -0.27388138 -0.21663369
-0.007228261 -0.22886562 0.018225849 -0.1286582 -0.14359424 0.24341181 -0.059265167 -0.5647405
-0.2352695 -0.062117733 0.07282327 -0.91263765 -0.35522327 0.13424353 0.18640792 0.14853987
-0.037634637 -0.3372967 -0.23579259 -0.48202983 -0.1678101 -0.1521799 -0.52583855 -0.025219526
0.051919248 0.04246079 0.03818899 -0.020741789 0.0665959 0.024340741 -0.0007795617 0.05530985
0.07480714 -0.089030616 0.016274596 -0.058037937 0.13201463 -0.21686953 0.077866845 -0.14976284
-0.023871189 -0.25038135 -0.35986093 0.1479374 -0.031753115 -0.030702597 -0.045878246 0.06386962
0.08035797 -0.38974532 0.088785104 0.12212814 0.13555762 -0.1596816 0.15779293 -0.32934672
-0.004161011 0.104642116 -0.42377257 -0.21703127 -0.1391524 -0.038569637 -0.08841656 -0.10743018
0.066126496 0.021000076 -0.10701729 -0.10046239 -0.0046773893 0.10013639 -0.05329248 -0.18497196
-0.24285464 -0.04005789 0.08814703 0.08814302 -0.021122193 0.15597743 0.08097102 0.086893484
0.07711554 -0.0025552914 -0.4029863 0.26529747 -0.09197746 -0.31333277 -0.2788508 -0.15761904
0.112835094 0.0892617 -0.03674287 -0.05245847 0.17256662 0.18471178 0.14874911 0.13332751
0.16388425 -0.020425543 0.07894706 0.22402368 0.1220021 -0.06319761 -0.0053909016 -0.024684351
-0.044229448 -0.16008069 -0.26269704 0.14896034 -0.07430579 0.011685258 0.043197814 0.038836814
-0.03170078 -0.008238724 0.16485088 0.03964993 0.09309981 0.09317611 0.26945513 -0.07541115
-0.038297947 -0.07666654 -0.35209605 -0.26485083 0.10662458 0.16583917 0.044844598 0.086205125
0.042057622 0.024152102 0.029503036 0.00072074926 0.057817675 0.18643484 0.116892174 -0.0075080735
-0.16552107 0.061794084 0.22544922 0.03529029 0.12846059 0.11913247 -0.043949712 0.12045991
-0.032329552 -0.26979002 -0.32610855 -0.029461795 -0.05246826 -0.2006135 -0.15605772 -0.034596737
00000000: 919a 913b 184e 4c3c c3b7 f83d 7e8c 0dbe
00000010: 711b 05bf abf0 31bc 960a 1a3e e9d4 74be
00000020: 1919 5ebd 63e1 44bd d1bf 293e fbc1 003e
00000030: ca09 6d3e fdfd 62be ac71 d0bd 591c e1be
00000040: 4c7a 0b3e f1e3 11be 14de f1bd 1a2a afbd
00000050: 874d 483e 25fa 283e 3213 663e 1219 3cbd
00000060: f3ef 87be 33da b4be f327 a9bc 7933 d73d
00000070: c3fd 27be 0509 cebd ed4e ba3d e2b8 1abe
00000080: 471f 30bd f7bb 873e 2818 d4bd a7f3 21bd
00000090: 6228 29bc 4aa3 8a3c 34f5 47be 30b1 413e
000000a0: 1033 66be 3526 aebd a2f8 c83e 25cd 41be
000000b0: 063a ddbd 0a35 32be 8429 363c 7535 94bc
000000c0: de5e 65bd 6b22 bd3c b775 df3c b843 76bd
000000d0: 5ec3 24be 2558 4a3d 16e5 5a3c c0a2 ce3d
000000e0: f5c9 cfbd a399 5fbe 32b7 6fbe db59 10bf
000000f0: 0695 6c3e d8b5 62bd c66a 3bbd 84dc d53d
00000100: fc8b c2be 1843 023f cb1b 2ebe 450f d53d
00000110: 87c8 a53e dedf db3c d842 c6be 3ba6 063e
00000120: d229 be3e b552 8cbd fbdc ecbe e812 ab3e
00000130: c2ab 4e3e 58ac 17bf 80fc 11bd 0991 91be
00000140: 1e86 6abd e8a8 99bd 248d e4bd e119 fdbd
00000150: ac89 2f3e 69b5 a2bd 8801 623e 07a3 8c3d
00000160: f6fb 88bc fbe1 07be 20fe 7e3d 28c3 c8be
00000170: 1c91 c0be 02f8 89be 0f09 56be 4cc5 3bbe
00000180: d761 62be 15cd 8b3e 2bd9 27bc d7e3 45be
00000190: 8d4a 54be af7d a13e 2e3a 8cbe 39d5 5dbe
000001a0: 0cdb ecbb c05b 6abe 604e 953c fabe 03be
000001b0: 5e0a 13be f240 793e 08c0 72bd d592 10bf
000001c0: 7dea 70be 2a6f 7ebd 5e24 953d 9fa2 69bf
000001d0: d3df b5be 2377 093e b8e1 3e3e d61a 183e
000001e0: c726 1abd 27b2 acbe 9d73 71be 9dcc f6be
000001f0: 69d6 2bbe 0cd5 1bbe 5b9d 06bf 2e99 cebc
00000200: 47a9 543d 5eeb 2d3d 0f6c 1c3d afea a9bc
00000210: 6e63 883d 3c66 c73c 805b 4cba 958c 623d
00000220: 7c34 993d af55 b6bd 4d52 853c 30b9 6dbd
00000230: d82e 073e 0c13 5ebe a778 9f3d 6e5b 19be
00000240: 838d c3bc fc31 80be b13f b8be e77c 173e
00000250: 8e0f 02bd 0384 fbbc d4ea 3bbd 13ce 823d
00000260: b892 a43d b38c c7be f7d4 b53d 511e fa3d
00000270: 9ecf 0a3e 9383 23be 7894 213e 22a0 a8be
00000280: 1759 88bb 9b4e d63d b8f8 d8be 723d 5ebe
00000290: f77d 0ebe 32fb 1dbd be13 b5bd 5b04 dcbd
000002a0: 546d 873d 5a08 ac3c e22b dbbd 3abf cdbd
000002b0: c944 99bb 4f14 cd3d 3749 5abd 4a69 3dbe
000002c0: e3ae 78be be13 24bd 6e86 b43d 5484 b43d
000002d0: 7308 adbc 8cb8 1f3e 22d4 a53d 36f5 b13d
000002e0: c1ee 9d3d ad76 27bb 3854 cebe 12d5 873e
000002f0: ae5e bcbd 276d a0be 88c5 8ebe e366 21be
00000300: 1616 e73d d7ce b63d b17f 16bd b1de 56bd
00000310: 4eb5 303e 1625 3d3e b051 183e 0287 083e
00000320: 46d1 273e 7853 a7bc ffae a13d 7766 653e
00000330: 3ddc f93d c06d 81bd 29a6 b0bb d636 cabc
00000340: f029 35bd 31ec 23be 3a80 86be 0f89 183e
00000350: a22d 98bd 8673 3f3c 31f0 303d 5a13 1f3d
00000360: add8 01bd b7fb 06bc abce 283e f767 223d
00000370: 1dab be3d 1ed3 be3d 06f6 893e 2971 9abd
00000380: 4fde 1cbd 5903 9dbd ef45 b4be 879a 87be
00000390: fd5d da3d bed1 293e f8ae 373d 508c b03d
000003a0: 9d44 2c3d a1da c53c 5ab0 f13c aaf0 3c3a
000003b0: 3ad2 6c3d c6e8 3e3e 2a65 ef3d 4906 f6bb
000003c0: 5b7e 29be cb1b 7d3d 29dc 663e 8d8c 103d
000003d0: 2c8b 033e b9fb f33d 9d04 34bd afb3 f63d
000003e0: fe6b 04bd eb21 8abe b3f7 a6be dd59 f1bc
000003f0: f5e8 56bd a06d 4dbe 98cd 1fbe 4fb5 0dbd

net.3.bias f4 [32]
-0.06885598 0.09050948 0.19653174 0.19015966 -0.14408831 0.09167511 0.27381173 0.19941889
0.20564051 0.111214064 0.10362251 0.156395 0.21316463 0.005559748 0.37624645 0.14962591
0.43247613 0.5756387 -0.055661667 0.26833966 0.17120148 0.17735608 0.19043274 -0.37480116
0.0122815445 0.09881303 -0.11396218 0.09251315 0.3721594 0.059255607 0.089021355 0.18499967
00000000: 5d04 8dbd 095d b93d 9e3f 493e 37b9 423e
00000010: e38b 13be 29c0 bb3d 0d31 8c3e 7734 4c3e
00000020: 6d93 523e 33c4 e33d 0a38 d43d 0326 203e
00000030: d447 5a3e 8c2e b63b 60a3 c03e 8937 193e
00000040: 836d dd3e 0f5d 133f 7dfd 63bd d163 893e
00000050: 714f 2f3e d59c 353e cd00 433e f0e5 bfbe
00000060: 8838 493c 7c5e ca3d 0165 e9bd 8977 bd3d
00000070: ad8b be3e 02b6 723d d450 b63d 8e70 3d3e

net.6.weight f4 [1, 32]
0.119058356 0.23170426 0.13657212 0.06536227 0.0713028 0.15381832 0.41343826 -0.4759426
-0.18607737 -0.18363851 0.10521328 0.1217189 -0.22462408 0.056082234 0.21505284 -0.10791137
-0.33848435 -0.8423426 0.09522336 0.13845639 0.13770194 -0.18496051 -0.17932154 -0.31516016
0.20572574 0.10143105 -0.053618733 -0.32236016 0.23462938 -0.17335182 -0.31312066 0.09905496
00000000: ded4 f33d e243 6d3e 90d9 0b3e a7dc 853d
00000010: 3407 923d 8d82 1d3e 2eae d33e c0ae f3be
00000020: 118b 3ebe bc0b 3cbe 0f7a d73d c247 f93d
00000030: db03 66be 7cb6 653d d036 5c3e a300 ddbd
00000040: d24d adbe c4a3 57bf 7704 c33d 83c7 0d3e
00000050: bd01 0d3e 4a66 3dbe 11a0 37be ac5c a1be
00000060: c5a9 523e 15bb cf3d 519f 5bbd 640c a5be
00000070: af42 703e 2483 31be 5a51 a0be 54dd ca3d
