results/nn_spatial/spatial_model.pth (torch, 15878 bytes, 6 tensors)

spatial_emb.weight f4 [8, 8]
00000000: 406d c13f c200 cf3f acae 453f a55c bebf
00000010: cd12 3a3f 3435 1bbf f79c 3e3e 794c 9dbf
00000020: ed71 12bf 3f3c d53f 6d12 62be 2ec3 97bf
00000030: 2d01 a5be 0010 a5be cf0a 03bf 381d 483f
00000040: 8831 9f3f 7f63 a93e bade cfbe ce58 9f3e
00000050: 102c dfbe 70eb 7e3f 2f9e 303f dd2b bd3f
00000060: 9cfe 423f 5d3f 8c3f ebd7 423f 4fc9 973f
00000070: f8ed c9be 1716 abbe 2a43 7abe 3f9c 453f
00000080: 5234 a0bf 9b55 a5be 3b1a acbd 8bb6 db3f
00000090: b3ff d63e 062d 41be f2c6 f83e 5286 47bf
000000a0: 74b7 b5bf 05aa 3a3f 7f0e 21bf 8c1a e3be
000000b0: 2c8e a6bf d254 dc3f fcb3 60bf d61b 00bf
000000c0: f5e1 19bf 592c 0cbf 21e7 d83e 9dff 063f
000000d0: a697 47be 2324 753f d864 10bf 216e 57bf
000000e0: 8cbe 97bf 8cfe 173f 9dab 8f3c 6b38 2c3f
000000f0: 08ae 0e3f d099 0540 3c62 49bf 1149 e23f
1.5111465 1.6172106 0.77219653 -1.4872023 0.7268494 -0.60628057 0.18614565 -1.2288963
-0.57205087 1.6659011 -0.22077341 -1.1856439 -0.3222746 -0.3223877 -0.5118837 0.78169584
1.2436991 0.33083722 -0.40599614 0.3112244 -0.43588305 0.99578 0.6899137 1.4779011
0.76169753 1.0956837 0.76110715 1.185831 -0.39439368 -0.3341529 -0.24439684 0.7719154
-1.2515967 -0.32291874 -0.084034406 1.7165083 0.41991958 -0.18864831 0.48589283 -0.7793933
-1.419661 0.7291568 -0.62912744 -0.4435619 -1.3012137 1.7213385 -0.87774634 -0.50042474
-0.6011041 -0.5475517 0.42363837 0.52733785 -0.19491443 0.95758265 -0.56403875 -0.8415242
-1.1855025 0.5937278 0.017537886 0.67273587 0.557343 2.087513 -0.7866552 1.7678548

net.0.weight f4 [64, 15]
00000000: 11a9 993e 5a15 9fbe ed89 063e 636e 3fbe
00000010: 56a3 cb3e 8d92 cabd 80f7 ecbd 9eae 143e
00000020: a52f 973e d5e9 6dbe b4d1 b7be 7477 673d
00000030: d394 94be 4201 6e3e 1005 963e 7c06 933e
00000040: 5556 c1bd 0615 053c 39f4 173d 8fe6 903d
00000050: 1f09 cd3e 9c32 0bbf 11e3 3b3e 7644 41bc
00000060: 6bf6 c3bd 1714 84bd f8df 50bc 8407 92be
00000070: e09d 27bb c57e cc3e 6a43 c1be 9150 debe
00000080: 0fe4 cb3d 23e6 7ebe 2d90 a2bd c7a8 0abd
00000090: 05fb cd3e 6fdd 223e bd36 8dbe afb9 12be
000000a0: c845 a0bc 769a b0be de97 36be ac3b 0cbe
000000b0: 5f8c 42be 5583 0bbf 7da9 ec3e 4f4e 92bd
000000c0: 05c8 da3c 4cb1 aebe 7817 03be e59c ef3d
000000d0: 4392 383d fbbc 43be 2a9f e5be 754b 1bbe
000000e0: eb6a 0abd 7def b6bd 12c1 2a3e f781 c6be
000000f0: 894c f7be c944 093c 4a51 bdbe f15c b6bd
00000100: 94c6 d93d e536 0fbe 988b 123e e777 623d
00000110: 719d 9fbe a880 1c3e f1b7 bfbd 68aa 543d
00000120: 3199 09be c30b 9fbe 0e18 0e3e 2c45 65be
00000130: 8760 a23e d6f0 e53c 76a0 d33e 94aa 08bd
00000140: 62c8 a73c cf07 8cbe 9be3 363d 18b1 cf3d
00000150: 522e 623e 39d7 b0bd 4cfb 243e e4ce 10be
00000160: 1206 0fbe 6668 643d 3397 c03e d967 6bbe
00000170: c498 1b3e e40e 18be 7fd6 a3be 6f25 90bd
00000180: f61c a13e 1027 103b b92b 413d 50a9 aebd
00000190: 05ad b33d 2787 06be 5877 18bc d03b e73c
000001a0: 70be 05be 803d cabe bc27 773d 8d8b cfbd
000001b0: 55d7 403e f66d ee3b 4986 98be c9d6 56bd
000001c0: 3ab9 09be 5ead ce3d 517f 883e 3766 81be
000001d0: 2db1 6c3e 7b5e 633d d899 4c3d f511 0ebd
000001e0: d70a 863e dcf6 453d 9f32 823d 1c15 883b
000001f0: 46d5 c2bd 8e37 393e 6df9 d1be 4ae2 e2bd
00000200: 720d ac3e 3fb2 0a3e 8893 303e 4c4e 043e
00000210: a31e 6abd eaf1 50bb c0f7 b23e 9f95 863e
00000220: 76e3 a3be 232c 013f 6eb9 4c3e 171b 91be
00000230: 34bd 163e 9832 8c3b 69d4 77be acfe 9dbe
00000240: 8f4c 84be a003 45be 7f0c 7f3e acf7 eb3b
00000250: 13d8 55be 2c36 b2be 3171 efbe c127 dc3e
00000260: aa1f 093d ddf0 7e3d a62e 193d 8bb3 84be
00000270: 7f23 a8be f022 003e 1c57 43be c056 b53d
00000280: 0fa6 93be d0a1 953e 6cba 193d 089f 07bd
00000290: 253b 2fbe 980f 07bf cf4e 27bc d03c 543e
000002a0: 864a f03b 7158 54be dfe1 043d f788 1b3e
000002b0: caa1 f83c cb9c 7fbe 4224 5cbe 2ee6 32be
000002c0: 2327 d43d 99e4 7cbe fdd0 2b3c ce37 d6bd
000002d0: 11f4 1e3d 35f4 a1be 6139 9abe 0b6d dbbd
000002e0: dccd 3abe f43f 253e ce59 423c 9abc 0dbe
000002f0: 25a1 8cbe 9492 e1be c3de 44be 39e5 c0bd
00000300: 5182 dbbc 0b38 103d 5a74 a43e bf52 b6be
00000310: 56ec 7b3d fb9e 57bf 6584 e53e c8d7 28bf
00000320: 0e81 9e3c 7fa5 f83e 3469 893d 3824 3fbe
00000330: bf90 053e 0dc0 043d 98e0 263f ab4c 1ebf
00000340: 2d37 153f 86c4 123e 7a03 863e 67c0 07be
00000350: 0836 2cbe 47cd 4a3d aa0b 363e e5ed b8be
00000360: e586 25be 5034 cdbd 82c8 d93c d0d3 f6be
00000370: 893a a7be e5e0 b5be ee9c 63be e5bc 693e
00000380: 4f57 b63e dde7 acbe fd68 8c3e 0c32 09be
00000390: f924 afbe 52eb 433d 842a cf3e 3e8a e2bd
000003a0: aa86 23be fe75 36be 53b1 76bd 47c9 d3bd
000003b0: 0509 9b3e 046f b1be 505a 8c3d 8e30 4bba
000003c0: 5fc6 f0be dcd9 523e bc44 debd 7756 6abc
000003d0: a303 00bf dad2 843d 899d fdbd 651c ff3d
000003e0: 6e60 c73d 4cc4 56be a1ef 373d 445a 84bc
000003f0: d63c 0a3e 0ce4 3b3e 557b 9c3c 1f49 193e
0.300118 -0.31070977 0.13138552 -0.18694453 0.39773053 -0.098912336 -0.115706444 0.14519736
0.29528537 -0.23233731 -0.35902178 0.056510404 -0.29019794 0.23242667 0.29300737 0.28715885
-0.09440295 0.008122688 0.037098143 0.070752256 0.4004602 -0.543741 0.18348338 -0.0117961075
-0.09568485 -0.06449144 -0.012748711 -0.2852136 -0.0025576279 0.39940467 -0.37746745 -0.43420842
0.09955608 -0.24892478 -0.079376556 -0.033852365 0.40230575 0.15904783 -0.27580824 -0.14328645
-0.019564524 -0.34492844 -0.1783137 -0.13694638 -0.1899886 -0.5449727 0.4622306 -0.071438424
0.026706705 -0.34119642 -0.12801921 0.11699847 0.04506136 -0.19115059 -0.44847995 -0.15165503
-0.03379337 -0.089323975 0.16675213 -0.3877103 -0.4830058 0.008378216 -0.3697608 -0.08904446
0.10633579 -0.13985784 0.14311063 0.05529013 -0.31174806 0.15283453 -0.09361256 0.051920325
-0.13437344 -0.3106366 0.13876364 -0.22389668 0.3171427 0.028068941 0.4133336 -0.0333658
0.020481292 -0.27349707 0.044650655 0.101412 0.22087982 -0.086348005 0.16111487 -0.14141423
-0.1396716 0.055763625 0.37615356 -0.22988833 0.15194994 -0.1484943 -0.31999585 -0.0703839
0.31467408 0.002199594 0.047160838 -0.085283875 0.08773235 -0.13137494 -0.0093057975 0.028226763
-0.13060927 -0.39500046 0.060340628 -0.10134039 0.18832143 0.007276292 -0.2978995 -0.05245093
-0.13449565 0.10091661 0.26659635 -0.25273296 0.23114462 0.055510025 0.049951404 -0.034685094
0.26180145 0.048331127 0.063573115 0.004152907 -0.09513335 0.18087599 -0.4101061 -0.110783175
0.33604008 0.13544558 0.17243779 0.12920493 -0.057158124 -0.0031882473 0.34954643 0.26286027
-0.32009476 0.5045797 0.19992611 -0.2834098 0.14720613 0.004278492 -0.24202122 -0.30858362
-0.2583966 -0.19239664 0.2490711 0.0072011556 -0.20883207 -0.34806955 -0.46766046 0.4299908
0.033477463 0.062241424 0.037398003 -0.2591823 -0.3283958 0.12513328 -0.19076198 0.08854437
-0.2883763 0.29225016 0.0375313 -0.03311065 -0.17112406 -0.5275817 -0.0102116605 0.20726323
0.0073331026 -0.20736863 0.03244197 0.15188967 0.030350585 -0.24962156 -0.21498206 -0.17470619
0.10359027 -0.24696578 0.010486838 -0.10459863 0.03880698 -0.31631628 -0.30121902 -0.10714158
-0.18242592 0.16137677 0.011862231 -0.13841477 -0.27466694 -0.44057143 -0.19225602 -0.09418721
-0.026795538 0.035209697 0.3212002 -0.35610005 0.061504684 -0.8422696 0.44827572 -0.65954256
0.019348647 0.48563763 0.06709519 -0.1866616 0.13043498 0.032409716 0.6518645 -0.61835736
0.58287317 0.1433278 0.26174527 -0.1325699 -0.16817486 0.049512174 0.17777887 -0.36119
-0.1616474 -0.100197434 0.026584867 -0.48208475 -0.32661846 -0.35523143 -0.22227833 0.22825964
0.35613486 -0.33770648 0.2742385 -0.13397998 -0.34207895 0.04783184 0.40462124 -0.11061524
-0.15969339 -0.17818448 -0.060227703 -0.10341125 0.3028032 -0.3465501 0.06853163 -0.00077510707
-0.47026345 0.2059092 -0.10852954 -0.014302841 -0.5000555 0.06485529 -0.12383563 0.12456588
0.097351894 -0.20973319 0.044906262 -0.016156323 0.1349977 0.18348712 0.019101778 0.149693

net.0.bias f4 [64]
00000000: 74a3 f4bc a49c adbe cc66 1ebd 9559 95be
00000010: 4bd8 10be 3c7c 3fbf 624e 81bd f002 5fbe
00000020: f0da 9ebe 6b05 02bf 4df9 40be aa5d b53d
00000030: 68d5 a6be 00b6 25bf d7c7 d5bd 39c5 8cbe
00000040: 20e5 dfbe cf70 dabd 039a 43be 5899 c7be
00000050: 304d 9dbe b15f a4be ae14 80be de8c 7cbd
00000060: 08b4 65be 0a1e c2be 4588 f13d 2bbc bcbd
00000070: 1dd1 f7be 1dc6 afbe e881 05bf 3c4a c8be
00000080: 89bd 6cbe a86a 89be 41b2 dabe e385 f5be
00000090: 7bfc 03bf 4846 88bc f222 aabe de41 1a3d
000000a0: a8d0 cdbe e1c5 55be bbba c2be cce9 8a3d
000000b0: 10ab 26bc 522c febd 92ab ccb9 41b7 1f3d
000000c0: 9c91 05bf 843d ce3c 8bb2 28bf d862 cb3d
000000d0: 1730 35bf 235c 8dbe 5f90 04bf 8583 e1be
000000e0: 8c02 ecbe bc75 c7be a2cb d2be 8466 d9be
000000f0: 6f9d 27be 9dc7 bebd 2771 0b3e 3b5a 75be
-0.029863097 -0.3390857 -0.038672253 -0.29169908 -0.14145009 -0.7479894 -0.063137785 -0.21778464
-0.3102641 -0.5078952 -0.188451 0.088557556 -0.3258469 -0.64730835 -0.10438507 -0.2749422
-0.43729496 -0.10666048 -0.1910172 -0.3898418 -0.30722952 -0.32104257 -0.25015777 -0.06165778
-0.22431958 -0.37913543 0.117935695 -0.09215578 -0.48401728 -0.34330836 -0.52151346 -0.39119136
-0.23119177 -0.26839185 -0.42714122 -0.4795371 -0.5155713 -0.016635075 -0.33229786 0.037660472
-0.40198255 -0.20876266 -0.3803309 0.067828745 -0.01017262 -0.12410797 -0.00039037742 0.038993124
-0.5217531 0.025175817 -0.65897435 0.09930962 -0.70776504 -0.27609357 -0.5178279 -0.44045654
-0.46095693 -0.38957012 -0.41170985 -0.42461026 -0.1636865 -0.09315417 0.13617383 -0.23960201

net.3.weight f4 [32, 64]
00000000: c645 93bd ee6e 85be 313f 85be 3782 b6bc
00000010: bff7 67be b246 1abd 409e 183e 318f 14be
00000020: 1c85 aa3d 2248 303d b6f7 09be 91f4 23bd
00000030: e140 b7be 4def 9abe 36df 75bd a6ed c1bd
00000040: 8b2c 32be 9981 aebc 37af 0e3e 5ba8 81be
00000050: e815 52be f668 d5bd bc60 09be f30a 5bbe
00000060: 2308 2ebe 9abc 4e3e 2516 52be dccb 983e
00000070: e006 20be 9fd9 7ebd 0575 dcba c81e 933c
00000080: d4ac ae3c baa8 6bbd 8129 da3e cb0c 873d
00000090: 20d6 4c3d c9c6 0abd fda4 aabe 430b baba
000000a0: b2cb 5b3e f38f 5ebe 0743 febd 5bf4 2ebd
000000b0: b72a 76bd e960 753d 06c9 ce3d e693 6c3d
000000c0: 7dd3 eabd 666f 2a3e a7bb 19be 6ebc 6fbe
000000d0: 9661 b1be 9804 f83d 96c4 aabe 6f27 ffbd
000000e0: d29d b8be 78f6 9ebe f53a 51be bab2 973d
000000f0: 2491 c43c 5075 f23c 985e dcbd 41f6 35bd
00000100: 7987 153e 373c 953d 3d44 09bd 4e2a 543c
00000110: fd3b 353e d008 913d b191 debe 04e0 ea3d
00000120: 56f1 163e 9333 963e 55f1 b33b 3d78 843d
00000130: 067d 60bb c04b ec3d 7682 17be dde8 97bd
00000140: 3c87 bfbd b031 64bd 4779 bebd 3957 8ebd
00000150: 30e7 22be a6ae 1c3d f16c 49be 47c1 d93d
00000160: 2e7e bbbe e223 593e a58f adbd 3e85 b8bd
00000170: 95b6 053e 2047 c43d 4528 553d 308d 843d
00000180: 7738 6cbd 8eb4 ebbe dd74 3dbf fd13 703e
00000190: d424 5ebc e5b7 28be 2943 ef3b 1336 ef3d
000001a0: e92d 633d 6628 38bd a154 c23d 1f86 98bd
000001b0: 8dd1 debc af0c 12bc b0b3 e3bd 53e6 633e
000001c0: 7097 113d 6429 c23c 56a0 c3be fc95 203a
000001d0: 7121 07bf 95af 11bf e36d 903c 7085 6b3e
000001e0: 7cf9 663d edf5 863d 3b9e b23d 6083 c8be
000001f0: 975b a03d 6728 93be c73a cabe 54ab 263e
00000200: b741 5d3d 6f7a e53d 3fa8 04be 79e7 86be
00000210: 3bb2 afbe 93b9 65bd eb6c 783d c419 41bd
00000220: 91c0 973d 8ea2 ff3c 2e8b 9a3c 72f8 94bd
00000230: f48e 803d 824e a8bf 0f2d 673d 6b05 89be
00000240: 2d6e 75be 495f 333d 0c18 ad3d 4d74 a7bd
00000250: af7c 9c3e 6c37 86bd a52e e73d c3b0 7f3d
00000260: 2efb b0bd 8ab3 143b d8c3 663d a016 be3d
00000270: b545 fcbd 76b8 e6be 5f01 303e 2de3 41be
00000280: e432 f73a 3797 e23c 3f3b aabd e45c e53d
00000290: a820 29bf c70c 963d b838 99bd 501a 833c
000002a0: a555 05bc 8b00 94bc abe4 cfbd 45a3 9c3c
000002b0: 3b26 523d 2de5 353d 5c76 90bd c9e8 f6bc
000002c0: cdb1 12be 5cce d03d e2fb 133e e454 08bc
000002d0: 5a81 2abe 47fd 25bd abf2 babe 7584 613d
000002e0: 42c2 40be 77d0 463e c45d a1be 00f0 193e
000002f0: 75e6 b13d 7ba5 70bc f499 953c c02f f2bd
00000300: de49 82bd 56ca 873a 3e0f 47be 4c13 abbe
00000310: a94e a6be 2f3b 08be bc8d 903c b25a 82be
00000320: 47d6 d63c 0816 f03d a2b1 53bd a181 e3bd
00000330: 6f6d 923c 9e0b a7bd e485 6e3d 0308 853e
00000340: 8efb b7be 1d15 b73c 3a7a b03d f724 173d
00000350: 3516 0fbd 4885 20be 0926 9f3d 72bf 863d
00000360: dd25 e2bc 63a5 443d c538 0c3d b34b e2bc
00000370: 1223 b23d 8a5a 6dbe 143b ba3d e247 943d
00000380: bcc5 483d b181 85bc 6635 dd3d 3b01 763d
00000390: 286d 73be 42b4 6c3b dd42 debd f016 53bd
000003a0: 0c77 84bd e719 b7bd 4b4e 98bd 0401 803d
000003b0: 25b8 b0bc cd73 09bd 83d6 ca3d 2b20 bb3d
000003c0: da45 acbe 7627 483d 36a0 853d 03c9 e0bc
000003d0: 69b1 813e d5f2 e33d 8780 13be 04a9 1f3e
000003e0: 8e81 2c3d baf9 023e 91a4 f3bc a061 933d
000003f0: 0e16 b8bc 215b 8ebd c66d 06bd f4f7 02bd
-0.071910426 -0.26061195 -0.26024774 -0.022278888 -0.22653101 -0.037665077 0.14904118 -0.14507748
0.0832617 0.04303754 -0.134734 -0.04002816 -0.35791686 -0.30260697 -0.060027324 -0.09469156
-0.17399804 -0.021302031 0.13934027 -0.25323758 -0.20516169 -0.1042041 -0.13415807 -0.21390896
-0.16995291 0.20189133 -0.2051626 0.29843032 -0.15627623 -0.06221926 -0.0016819543 0.017959014
0.021322645 -0.057533957 0.4260979 0.06594237 0.050008893 -0.033880983 -0.33329 -0.001419403
0.21464422 -0.217346 -0.12415128 -0.042713504 -0.06009933 0.059906874 0.10096936 0.057758234
-0.114661194 0.16644058 -0.1501299 -0.23411724 -0.34644765 0.12110251 -0.33353108 -0.12458693
-0.36057907 -0.31047416 -0.20432647 0.07407136 0.02399499 0.029596955 -0.1076023 -0.0444243
0.1460246 0.07286876 -0.033512343 0.012949539 0.17698665 0.07081759 -0.4347053 0.11468509
0.147405 0.29336223 0.0054914155 0.06468246 -0.0034254207 0.11537886 -0.1479586 -0.07417462
-0.09351966 -0.05571145 -0.093004756 -0.0695023 -0.15908504 0.038252495 -0.19670464 0.10632568
-0.36619705 0.21205094 -0.08474664 -0.09009789 0.13057931 0.095838785 0.052040357 0.06472242
-0.057671037 -0.4603619 -0.74006444 0.23445125 -0.013558585 -0.164764 0.0073017073 0.11680236
0.055463705 -0.044960402 0.09488798 -0.074474566 -0.027199531 -0.008914157 -0.11118257 0.2225583
0.035544813 0.023701377 -0.38208264 0.0006125865 -0.527854 -0.5690854 0.017630523 0.23000121
0.05639027 0.06589875 0.08721586 -0.3916273 0.078299694 -0.28741762 -0.3949797 0.16276294
0.05401775 0.11204993 -0.12954806 -0.26348475 -0.34315667 -0.05608518 0.060650747 -0.047143713
0.07409776 0.031205442 0.018865194 -0.0727395 0.06277266 -1.3148959 0.056439456 -0.26761946
-0.2396781 0.043792043 0.08451852 -0.081764795 0.30563876 -0.0655354 0.112881936 0.062424432
-0.08641659 0.0022690021 0.056339115 0.09281659 -0.12317983 -0.45062608 0.17188023 -0.18934317
0.0018859771 0.027659995 -0.083120815 0.11199358 -0.66065454 0.07326656 -0.07481521 0.016003758
-0.008138095 -0.018066665 -0.10151037 0.019120822 0.05130599 0.044408012 -0.07053825 -0.030140297
-0.14325638 0.1019561 0.14451554 -0.008321021 -0.16650906 -0.040524747 -0.36513266 0.05505796
-0.18824103 0.1941546 -0.3151685 0.15032959 0.08686534 -0.014687891 0.018261887 -0.11825514
-0.06361745 0.0010359983 -0.19439408 -0.3341316 -0.32481888 -0.13303827 0.01764571 -0.2545982
0.026225222 0.11722952 -0.051683076 -0.11108709 0.017874448 -0.08156513 0.058233157 0.25982675
-0.35934108 0.022348935 0.08617063 0.036900487 -0.034933288 -0.15675843 0.077709265 0.06579484
-0.027605945 0.048009288 0.034233827 -0.027623987 0.086980954 -0.23179069 0.090932995 0.07240273
0.0490167 -0.016297193 0.108012006 0.060059767 -0.23772109 0.0036118184 -0.10852597 -0.051535547
-0.06468019 -0.08940487 -0.07436808 0.06250194 -0.021572182 -0.0335577 0.09904196 0.09136995
-0.33647043 0.048865758 0.065246984 -0.0274396 0.25330666 0.11130301 -0.14404498 0.15591818
0.04211574 0.12790576 -0.029741557 0.07196355 -0.022471454 -0.06950975 -0.03281953 -0.031974748

net.3.bias f4 [32]
00000000: 4804 babd 10ac 6f3d db06 183e 9b44 0a3e
00000010: 5cbb 1c3d 84d0 0c3c f929 053e d1b8 b23d
00000020: 5c1a 873e 9565 fe3d 4015 c2bc a856 ad3e
00000030: 5bb4 1f3e 829a 143e 4727 543d 9b50 533e
00000040: 8a78 15bd dbd0 bc3e 39b4 153e 4dc7 bb3e
00000050: 64b8 933e 74d5 323e e3ba 5b3e 5940 023e
00000060: 7d5e c6bd 5ac5 c73d 65a2 173e 563e 4e3e
00000070: b01c 593d 6349 4b3e 07e4 533d f86e 283e
-0.09082848 0.0585137 0.14846365 0.13502733 0.038264617 0.008594636 0.13004293 0.08726657
0.26387298 0.12421719 -0.023691773 0.33855176 0.15596144 0.14512065 0.05179527 0.20636217
-0.036491908 0.36878094 0.1461953 0.36675492 0.28851616 0.17464238 0.2145801 0.12719859
-0.09685991 0.09754439 0.14808042 0.20140967 0.053005874 0.19852214 0.051731136 0.16448581

net.6.weight f4 [1, 32]
00000000: cd7e 6a3e b327 2bbe 487d 463e dcc3 f53d
00000010: 455a 113e c560 6bbe d3b7 c93d 2c7a 7abe
00000020: 23cb 3e3e d865 96be a95b 313e 88d4 443f
00000030: b388 45be e906 01bf db2e 073e 400e a1be
00000040: ecec 4d3e 2a81 853e b059 413e c64d 00bf
00000050: 75d2 d1be 0aec a6be 644a 4bbe 71dd 6d3e
00000060: 2303 45bd 5438 563e 41fb 13bf 1954 ae3e
00000070: 2b2b d03d 4223 5dbe dcde 2f3e e509 873e
0.22899933 -0.16714363 0.19383729 0.12000248 0.14194591 -0.22986133 0.09849515 -0.24460667
0.18632178 -0.29374576 0.17320122 0.76886797 -0.19290428 -0.5040117 0.13201468 -0.31456184
0.2010991 0.26075107 0.1888187 -0.5011867 -0.40980878 -0.3260196 -0.19852597 0.23229004
-0.048098695 0.20919925 -0.5780526 0.34048536 0.10164484 -0.21595481 0.17174858 0.26374736
